…
2026-03-18 17:58:54,070 - INFO - Epoch: 028, Train Loss: 0.4661, Val Loss: 0.4199, Train Acc: 0.8866, Val Acc: 0.8889, Test Acc: 0.8601
2026-03-18 17:58:54,076 - INFO - --- Found and saved a better model! ---
2026-03-18 17:59:32,447 - INFO - Epoch: 029, Train Loss: 0.4711, Val Loss: 0.4450, Train Acc: 0.9231, Val Acc: 0.8889, Test Acc: 0.9231
2026-03-18 18:00:11,018 - INFO - Epoch: 030, Train Loss: 0.4475, Val Loss: 0.4028, Train Acc: 0.9130, Val Acc: 0.9167, Test Acc: 0.9021
2026-03-18 18:00:11,024 - INFO - --- Found and saved a better model! ---

----------------------------------------------------------------------------------------------
Only MLP:

MLP(
  (mlp): Sequential(
    (0): Linear(in_features=53, out_features=16, bias=True)
    (1): LayerNorm((16,), eps=1e-05, elementwise_affine=True)
    (2): ReLU()
    (3): Dropout(p=0.7, inplace=False)
    (4): Linear(in_features=16, out_features=4, bias=True)
    (5): LayerNorm((4,), eps=1e-05, elementwise_affine=True)
    (6): ReLU()
    (7): Dropout(p=0.6, inplace=False)
  )
  (classifier): Linear(in_features=4, out_features=2, bias=True)
)

Accuracy doesn't go higher than 0.7.

----------------------------------------------------------------------------------------------
Combined

2026-03-18 18:47:45,865 - INFO - MultiModalGNN(
  (graph_branch): GAT_graph_branch(
    (skip_conn_projection1): Linear(in_features=5, out_features=128, bias=True)
    (conv1): GATv2Conv(5, 64, heads=2)
    (bn1): BatchNorm(128, eps=1e-05, momentum=0.1, affine=True, track_running_stats=True)
    (skip_conn_projection2): Linear(in_features=128, out_features=64, bias=True)
    (conv2): GATv2Conv(128, 64, heads=1)
    (bn2): BatchNorm(64, eps=1e-05, momentum=0.1, affine=True, track_running_stats=True)
  )
  (clinical_branch): MLP_clinical_branch(
    (mlp): Sequential(
      (0): Linear(in_features=53, out_features=16, bias=True)
      (1): LayerNorm((16,), eps=1e-05, elementwise_affine=True)
      (2): ReLU()
      (3): Dropout(p=0.7, inplace=False)
      (4): Linear(in_features=16, out_features=4, bias=True)
      (5): LayerNorm((4,), eps=1e-05, elementwise_affine=True)
      (6): ReLU()
      (7): Dropout(p=0.6, inplace=False)
    )
  )
  (classifier): Sequential(
    (0): Linear(in_features=132, out_features=64, bias=True)
    (1): ReLU()
    (2): Dropout(p=0.5, inplace=False)
    (3): Linear(in_features=64, out_features=2, bias=True)
  )
)
/homes/cbelluti/.local/lib/python3.11/site-packages/torch_geometric/utils/_scatter.py:91: UserWarning: The usage of `scatter(reduce='max')` can be accelerated via the 'torch-scatter' package, but it was not found
  warnings.warn(
(base) [cbelluti@ailb-login-02 project_folder]$ tail -f train.err
    (0): Linear(in_features=132, out_features=64, bias=True)
    (1): ReLU()
    (2): Dropout(p=0.5, inplace=False)
    (3): Linear(in_features=64, out_features=2, bias=True)
  )
)
/homes/cbelluti/.local/lib/python3.11/site-packages/torch_geometric/utils/_scatter.py:91: UserWarning: The usage of `scatter(reduce='max')` can be accelerated via the 'torch-scatter' package, but it was not found
  warnings.warn(
2026-03-18 18:48:24,477 - INFO - Epoch: 001, Train Loss: 1.0484, Val Loss: 0.6744, Train Acc: 0.4980, Val Acc: 0.5556, Test Acc: 0.5315
…
