…
2026-03-23 19:16:21,328 - INFO - --- Found and saved a better model! ---

2026-03-23 19:16:57,288 - INFO - Epoch: 033, Train Loss: 0.3922, Val Loss: 0.5282, Train Acc: 0.9449, Val Acc: 0.9115
2026-03-23 19:16:57,288 - INFO - --- Found and saved a better model! ---

2026-03-23 19:29:46,011 - INFO - --- Stopping training due to early stopping ---

2026-03-23 19:29:49,742 - INFO - Fold 5 Test Acc: 0.9577

2026-03-23 19:29:49,742 - INFO - Mean Test Accuracy: 0.9380 +/- 0.0137


------------------------------------------------


2026-03-25 22:40:46,010 - INFO - MLP(
  (mlp): Sequential(
    (0): Dropout(p=0.2, inplace=False)
    (1): Linear(in_features=53, out_features=64, bias=True)
    (2): LayerNorm((64,), eps=1e-05, elementwise_affine=True)
    (3): SiLU()
    (4): Dropout(p=0.5, inplace=False)
    (5): Linear(in_features=64, out_features=8, bias=True)
    (6): LayerNorm((8,), eps=1e-05, elementwise_affine=True)
    (7): SiLU()
    (8): Dropout(p=0.2, inplace=False)
  )
  (classifier): Linear(in_features=8, out_features=2, bias=True)
)
2026-03-25 22:40:46,011 - INFO - --- FOLD 1/5 ---

2026-03-25 22:41:06,258 - INFO - Epoch: 001, Train Loss: 0.7061, Val Loss: 0.6393, Train Acc: 0.6733, Val Acc: 0.7018
2026-03-25 22:41:06,268 - INFO - --- Found and saved a better model! ---

2026-03-25 22:41:19,720 - INFO - Epoch: 002, Train Loss: 0.6661, Val Loss: 0.6153, Train Acc: 0.6998, Val Acc: 0.7193
…
2026-03-25 23:31:45,063 - INFO - Epoch: 041, Train Loss: 0.5706, Val Loss: 0.6130, Train Acc: 0.7930, Val Acc: 0.6814
2026-03-25 23:32:01,377 - INFO - Epoch: 042, Train Loss: 0.5871, Val Loss: 0.6248, Train Acc: 0.7930, Val Acc: 0.6903
2026-03-25 23:32:01,377 - INFO - --- Stopping training due to early stopping ---

2026-03-25 23:32:03,025 - INFO - Fold 5 Test Acc: 0.6479

2026-03-25 23:32:03,026 - INFO - Mean Test Accuracy: 0.6535 +/- 0.0103


------------------------------------------------


2026-03-27 08:33:29,224 - INFO - --- FOLD 1/5 ---

2026-03-27 08:33:29,393 - INFO - MultiModalGNN(
  (graph_branch): GAT_graph_branch(
    (skip_conn_projection1): Linear(in_features=5, out_features=128, bias=True)
    (conv1): GATv2Conv(5, 64, heads=2)
    (bn1): BatchNorm(128, eps=1e-05, momentum=0.1, affine=True, track_running_stats=True)
    (skip_conn_projection2): Linear(in_features=128, out_features=64, bias=True)
    (conv2): GATv2Conv(128, 64, heads=1)
    (bn2): BatchNorm(64, eps=1e-05, momentum=0.1, affine=True, track_running_stats=True)
  )
  (clinical_branch): MLP_clinical_branch(
    (mlp): Sequential(
      (0): Dropout(p=0.2, inplace=False)
      (1): Linear(in_features=53, out_features=64, bias=True)
      (2): LayerNorm((64,), eps=1e-05, elementwise_affine=True)
      (3): SiLU()
      (4): Dropout(p=0.5, inplace=False)
      (5): Linear(in_features=64, out_features=8, bias=True)
      (6): LayerNorm((8,), eps=1e-05, elementwise_affine=True)
      (7): SiLU()
      (8): Dropout(p=0.2, inplace=False)
    )
  )
  (gate): Sequential(
    (0): Linear(in_features=136, out_features=16, bias=True)
    (1): ReLU()
    (2): Linear(in_features=16, out_features=1, bias=True)
    (3): Sigmoid()
  )
  (classifier): Sequential(
    (0): Linear(in_features=136, out_features=2, bias=True)
  )
)
2026-03-27 08:34:18,935 - INFO - Epoch: 001, Train Loss: 0.6923, Val Loss: 0.6718, Train Acc: 0.6600, Val Acc: 0.6754
2026-03-27 08:34:18,944 - INFO - --- Found and saved a better model! ---

2026-03-27 08:35:02,047 - INFO - Epoch: 002, Train Loss: 0.6767, Val Loss: 0.6393, Train Acc: 0.7064, Val Acc: 0.7281
2026-03-27 08:35:02,055 - INFO - --- Found and saved a better model! ---
…
